2025-04-16 19:06:33 - INFO - 
============================== Starting ConvTran Training ==============================
2025-04-16 19:06:34 - INFO - Model architecture:
ConvTran(
  (embed_layer): Sequential(
    (0): Conv2d(1, 512, kernel_size=(1, 8), stride=(1, 1), padding=same)
    (1): BatchNorm2d(512, eps=1e-05, momentum=0.1, affine=True, track_running_stats=True)
    (2): GELU(approximate='none')
    (3): Conv2d(512, 128, kernel_size=(1, 1), stride=(1, 1), padding=valid)
    (4): BatchNorm2d(128, eps=1e-05, momentum=0.1, affine=True, track_running_stats=True)
    (5): GELU(approximate='none')
  )
  (Fix_Position): tAPE(
    (dropout): Dropout(p=0.2, inplace=False)
  )
  (attention_layer): Attention_Rel_Scl(
    (key): Linear(in_features=128, out_features=128, bias=False)
    (value): Linear(in_features=128, out_features=128, bias=False)
    (query): Linear(in_features=128, out_features=128, bias=False)
    (dropout): Dropout(p=0.2, inplace=False)
    (to_out): LayerNorm((128,), eps=1e-05, elementwise_affine=True)
  )
  (LayerNorm): LayerNorm((128,), eps=1e-05, elementwise_affine=True)
  (LayerNorm2): LayerNorm((128,), eps=1e-05, elementwise_affine=True)
  (FeedForward): Sequential(
    (0): Linear(in_features=128, out_features=256, bias=True)
    (1): ReLU()
    (2): Dropout(p=0.2, inplace=False)
    (3): Linear(in_features=256, out_features=128, bias=True)
    (4): Dropout(p=0.2, inplace=False)
  )
  (gap): AdaptiveAvgPool1d(output_size=1)
  (flatten): Flatten(start_dim=1, end_dim=-1)
  (out): Linear(in_features=128, out_features=2, bias=True)
)
2025-04-16 19:06:34 - INFO - Total parameters: 189,178
2025-04-16 19:06:34 - INFO - 
Starting training process...
2025-04-16 19:06:35 - INFO - Epoch 1/100
2025-04-16 19:06:35 - INFO - Validation Loss: 0.6246 | Accuracy: 0.6361
2025-04-16 19:06:35 - INFO - Learning Rate: 0.001000
2025-04-16 19:06:35 - INFO - New best model saved
2025-04-16 19:06:36 - INFO - Epoch 2/100
…
